Exercise3_PADEN_2022107114/app/src/main/ml/model.tflite (tflite, 149220 bytes, 10 tensors)

sequential/conv2d/Relu;sequential/conv2d/BiasAdd;sequential/conv2d_2/Conv2D;sequential/conv2d/Conv2D;sequential/conv2d/BiasAdd/ReadVariableOp f4 [32, 3, 3, 3]
00000000: abcf 8cb7 8824 4db9 61be f739 88b4 99b9
00000010: 98d6 d439 90a4 4c39 0e69 21b8 c4ac 78b9
00000020: 568d 5039 bc69 dfb9 a2a1 053a de7a 17b9
00000030: 5106 efb9 1356 0239 30e4 1738 ed85 b237
00000040: 51b3 cd39 1778 203a ba91 d639 537a 0dba
00000050: a098 4d39 ffb1 97b5 dd27 ee38 c6a8 fa39
00000060: 318b 5b39 294b 0d3a 67c1 93b9 c658 bfb8
00000070: 1664 64b8 992a 0d3a f444 063a e50b 9139
00000080: 6774 7b39 4475 3639 ffd6 1c39 be4f 5739
00000090: f1c5 d639 e31a dab8 e4d4 6839 6ed0 06ba
000000a0: af27 b139 1392 26b6 fdc0 d0b9 887b 00ba
000000b0: 99af d8b9 8ee0 17b9 18ea 063a d3e8 0e3a
000000c0: a48d 9cb9 1dad 1a39 4d5b 9db9 18b3 f5b9
000000d0: 42d4 db39 8385 74b8 660e f0b9 2f18 8bb9
000000e0: f638 1db9 fb11 08ba 9a55 92b8 ed5c eab9
000000f0: c776 05b8 76de a8b9 3669 f8b7 8816 2cba
00000100: 2978 1138 cbcb e9b8 a5bb 7a39 280a a5b8
00000110: 1948 243a bad1 a239 3abc 1e39 15be 9439
00000120: 4e74 8a39 a95e 09b9 cd45 0bb9 c706 033a
00000130: b731 033a 4f47 083a 0b2d 4539 f1c9 3939
00000140: e060 4339 2529 81b7 c108 06ba a1b0 06ba
00000150: 93ee d239 2446 ebb9 15ee 8039 2553 cf38
00000160: cef4 7c39 2ccd 98b9 9612 51b9 1844 e639
00000170: cf4c 9bb9 189f 17b9 b90d 8bb9 32f4 0cba
00000180: 0a74 efb9 c8a6 84b8 acb3 00ba 6ae6 e939
00000190: c51f 3a38 3bce b039 a157 0a3a 47e5 1239
000001a0: 5a53 b437 23cd b139 6a38 063a 086a 8d38
000001b0: fd58 0d3a 5c79 cf39 c297 05ba fae0 ff39
000001c0: e5ec f939 47fc 1b39 8428 2a39 ba86 e139
000001d0: 18c4 1d39 acb8 dc39 27cf 133a d603 0939
000001e0: ce5d 8c38 61c4 dab9 c838 4f39 8934 083a
000001f0: fc94 0d39 b8d5 9539 9107 d3b9 f41f 0439
00000200: 2ca9 053a 113e 74b8 c855 ee39 c001 6338
00000210: d50f 7eb8 09ce 0f3a e4db f538 38e4 29b9
00000220: 4e73 9639 f3e1 fcb8 0189 d739 341c 3239
00000230: 3910 94b9 1844 5b39 870a bab9 7b1e ec39
00000240: 0de6 df39 c47a 7f39 8c21 71b9 400a 24b9
00000250: d85c 9eb9 0e30 54b8 415e 0839 c169 e339
00000260: 087c e039 89d9 4ab8 8920 4439 6fb4 2639
00000270: 8bd9 9639 a6f0 aab9 f981 303a b758 c639
00000280: 5c0b ac39 6ea5 8239 bbf1 c8b9 f3e0 97b9
00000290: 94c9 36b9 c520 ddb9 5592 80b9 0238 073a
000002a0: 051c 2639 d23b 93b9 ad9d d8b9 18b2 c5b9
000002b0: b8cf c1b9 c14c 3239 3a95 8939 e7f3 ff39
000002c0: 7539 8cb9 b70d 02ba 4d26 e4b9 6795 d6b9
000002d0: c235 1eb9 7c93 73b9 6eed 05b8 3ac5 e9b8
000002e0: c51a 37b9 62ca d6b9 739e 59b9 4e61 9cb9
000002f0: b422 7a38 f49b 1c3a 5ecb 3db8 4e6c a939
00000300: af42 d5b9 329c bcb9 3096 4739 7cd5 1b3a
00000310: 8cb7 d139 016b 15b9 d0c5 a5b8 d3c0 97b8
00000320: c088 eab9 64d6 1e3a 4f25 f7b8 08cb 0238
00000330: 3b05 57b9 fa8e 2b39 f27f 8e37 d221 3bb9
00000340: dadc 64b9 9a36 4eb9 9c34 bab8 c13a f2b8
00000350: c2e5 5239 c518 7d39 7e0f 1eba 1814 9fb8
00000360: 329a 063a f56f deb9 9126 f0b9 e3f4 0bb5
00000370: 28d3 04b9 3408 da39 9af5 093a 241b fab9
00000380: a07d 0dba 6b27 c0b9 efaa a039 4645 4e39
00000390: 1de0 b139 a23e e6b9 1917 4339 e8ad de39
000003a0: 5681 0eba a5d6 db39 a9eb bdb7 50d0 6039
000003b0: ef90 b3b9 86d5 30b8 69d8 f9b9 b356 c138
000003c0: 99b1 053a 2adc 06ba 45b0 3739 b6c2 85b9
000003d0: 0c18 f539 5daf e139 11c3 eeb9 6294 98b9
000003e0: 4b81 e939 dc3f 17ba a307 123a 9dd7 2538
000003f0: 06eb cc39 c120 8839 cd68 8d39 7bc6 b639
-1.6786003e-05 -0.00019563932 0.00047253355 -0.0002931694 0.00040595676 0.0001951626 -3.848323e-05 -0.00023715483
0.00019889078 -0.00042612653 0.00050976325 -0.00014446254 -0.00045590338 0.00012429831 3.621372e-05 2.1281618e-05
0.00039234248 0.00061214104 0.00040925835 -0.0005396951 0.00019607181 -1.130218e-06 0.000113561495 0.00047809462
0.0002093732 0.0005389923 -0.0002818212 -9.124125e-05 -5.445265e-05 0.00053850707 0.0005121969 0.00027665417
0.00023980589 0.00017400557 0.00014957412 0.00020533704 0.0004096474 -0.00010400058 0.00022204552 -0.0005142753
0.00033789637 -2.4820954e-06 -0.0003981664 -0.000490122 -0.0004132956 -0.00014484135 0.0005146577 0.00054515636
-0.0002986017 0.00014751074 -0.00030013398 -0.00046863477 0.0004192908 -5.8298476e-05 -0.00045787095 -0.00026530164
-0.00014993906 -0.00051906676 -6.977767e-05 -0.00044701193 -3.182029e-05 -0.00032209203 -2.9612896e-05 -0.0006564637
3.4682602e-05 -0.00011148265 0.00023911761 -7.869705e-05 0.0006266847 0.00031055306 0.00015138174 0.00028370382
0.00026408065 -0.00013100602 -0.00013282076 0.00049982633 0.00050046615 0.0005198614 0.00018804164 0.00017718204
0.00018632738 -1.5397158e-05 -0.0005112999 -0.0005138014 0.00040232073 -0.00044874952 0.00024591447 9.886016e-05
0.0002412379 -0.00029144564 -0.00019938717 0.00043919752 -0.0002962113 -0.00014459749 -0.0002652237 -0.0005376964
-0.00045672088 -6.325316e-05 -0.00049095857 0.00044612895 4.4375443e-05 0.0003372299 0.000527734 0.00014009057
2.1496486e-05 0.0003391291 0.00051201007 6.743154e-05 0.00053919834 0.00039572536 -0.0005096161 0.0004880501
0.0004766948 0.00014875933 0.00016227557 0.00043015723 0.00015045737 0.0004209926 0.0005638473 0.00013066767
6.693193e-05 -0.00041726514 0.00019762211 0.00051958166 0.00013502309 0.00028578728 -0.00040250694 0.00012600404
0.0005098756 -5.8231937e-05 0.0004545881 5.4122647e-05 -6.0573064e-05 0.0005485719 0.00011723468 -0.00016202114
0.00028696138 -0.00012058383 0.00041110071 0.0001698591 -0.00028240847 0.00020910834 -0.00035484528 0.00045036137
0.00042705276 0.00024364429 -0.00022996048 -0.00015644077 -0.00030205282 -5.0589493e-05 0.00013005083 0.00043375607
0.0004281702 -4.836315e-05 0.00018704137 0.0001589821 0.00028772312 -0.00032604224 0.00067332346 0.000378316
0.0003281486 0.00024918787 -0.00038327076 -0.00028968565 -0.00017431966 -0.0004217682 -0.00024523088 0.0005158187
0.00015841432 -0.00028082595 -0.00041316208 -0.00037707458 -0.0003696659 0.00017003996 0.0002624186 0.00048819112
-0.0002674569 -0.000496115 -0.00043516085 -0.00040928574 -0.0001508808 -0.00023229228 -3.1930795e-05 -0.00011147042
-0.00017462212 -0.00040968048 -0.0002075376 -0.00029827136 5.9636965e-05 0.00059741666 -4.5250512e-05 0.00032314885
-0.0004067621 -0.0003597453 0.00019034068 0.00059445924 0.0004000034 -0.0001424961 -7.9046586e-05 -7.2361574e-05
-0.00044733845 0.00060591684 -0.00011784827 3.1183503e-05 -0.00020505946 0.00016361094 1.6987298e-05 -0.00017846309
-0.00021826048 -0.00019666032 -8.8789704e-05 -0.00011550403 0.00020112752 0.00024137188 -0.000602953 -7.5854536e-05
0.0005134671 -0.00042426554 -0.000458051 -5.213789e-07 -0.00012667163 0.00041586312 0.0005262733 -0.00047703937
-0.0005397443 -0.00036650462 0.00030644934 0.00019671497 0.00033927048 -0.00043915684 0.00018605254 0.0004247271
-0.00054361427 0.00041930858 -2.2640294e-05 0.00021439907 -0.00034249524 -4.216053e-05 -0.0004765422 9.219106e-05
0.00051000115 -0.00051445013 0.00017517906 -0.00025512808 0.00046747958 0.00043046 -0.00045540233 -0.00029102253
0.00044537554 -0.00057697087 0.0005570596 3.953987e-05 0.00039085018 0.00025964345 0.00026971698 0.00034861625

sequential/conv2d/BiasAdd/ReadVariableOp f4 [32]
00000000: dc93 8fbc c772 8dbb dd7e 8ebc 77c0 523c
00000010: 6815 10bd 1cb3 50bd 0000 0000 2ed9 2c39
00000020: f44a ca3c 8413 04bd d438 083d bb48 7dbc
00000030: a73a 80bc b4c9 fbbb a994 0fbd 028e b73c
00000040: 0000 0000 bc3c 393c f010 403c e532 98bc
00000050: 8556 1e3d ac27 753c d449 b4bb 7cdc 1c3c
00000060: ab00 b1ba 12ad 18bc d425 cd3c 0000 0000
00000070: 6b9e 313c f227 35bd 3c88 fdbc 23f1 bdbc
-0.01752656 -0.004316661 -0.017394478 0.01286327 -0.035176665 -0.050952062 0.0 0.00016484104
0.024693944 -0.032245174 0.03325732 -0.015459235 -0.015652968 -0.007683957 -0.035053883 0.022406582
0.0 0.011305984 0.011722788 -0.018578956 0.03865673 0.014963072 -0.005501965 0.009574052
-0.0013504227 -0.009318607 0.025042452 0.0 0.010840992 -0.044227548 -0.03094875 -0.023186272

sequential/conv2d_1/BiasAdd/ReadVariableOp f4 [32]
00000000: 0864 04bd c61e fe3b 062b 7e3b 0000 0000
00000010: 7ba0 b4bb 8396 1f3b 0f68 4cbc b43e 5ebb
00000020: c39b c1bc a8f9 bbbc 66e9 153c 58ca f9bb
00000030: 6b44 bc3c 75ce 7f3c bb55 cabc ddf2 08bc
00000040: bcb7 233b d648 4a3c 1cf8 59bb 6d12 b7ba
00000050: 0179 e0bb 96e4 0dbc 02f3 5fbb 2013 a3bb
00000060: ec46 cbbb 237e b3bb bfd9 ac3c a678 e83c
00000070: cb11 d8bb b2e5 b2bb 00c1 cd3c 3d1c 06bc
-0.03232196 0.0077551333 0.0038782968 0.0 -0.005512295 0.0024351187 -0.012475981 -0.0033911886
-0.023633843 -0.022946194 0.009149885 -0.007622998 0.022981843 0.015613188 -0.024699083 -0.008358684
0.002498134 0.012346467 -0.0033259457 -0.0013967283 -0.0068503623 -0.008660456 -0.0034171944 -0.004976645
-0.006203523 -0.005477683 0.021099923 0.028377842 -0.006593918 -0.0054595107 0.025116444 -0.0081854435

sequential/conv2d_2/BiasAdd/ReadVariableOp f4 [32]
00000000: 25e8 c6ba 69b7 8d3c 0000 0000 017d 753c
00000010: 0000 0000 ac1e 953a e973 553c 6cdc 4ebb
00000020: 8d3d d03c 4f48 c53b 2553 913c fec7 9a3c
00000030: 0ca6 07bc c8b4 d93b 90dd f2bb 291c 0fbc
00000040: 2df7 36bc 1b86 40bc 8a63 86bb be7e f23c
00000050: 9f74 05bc 4119 3cbc b6dd c0bb 68f2 1c3c
00000060: 43ba 9b3c 5206 11bc 82b2 d7bb f2f2 d8bb
00000070: b684 8e3c f5d2 bd3c 424e c83c 0000 0000
-0.0015175386 0.01729937 0.0 0.014983417 0.0 0.0011376939 0.013028123 -0.0031564487
0.025419975 0.0060205827 0.017739842 0.018894192 -0.008279335 0.0066438653 -0.007411666 -0.008734741
-0.01116733 -0.011750723 -0.0041012214 0.029601451 -0.00814548 -0.01148063 -0.005885805 0.0095792785
0.019009715 -0.008851605 -0.006582559 -0.006620758 0.017397266 0.023171881 0.024451379 0.0

sequential/conv2d_1/Conv2D f4 [32, 3, 3, 32]
00000000: 1b38 033e 7489 02bd 6ddd a53d 86f7 843d
00000010: 0cee 573d a4fd b03d ac90 9b3c e3a1 82bd
00000020: 0fda 18bd 5439 e63d b68e 0d3d 2db0 f2bb
00000030: d14f dcbd 2cfe 013d 3399 d33d edf3 61bd
00000040: c898 543d 22cb 273d 9f4b 403c 1e2b 3f3c
00000050: 61d2 223d c6f4 01be 7c5e 053d 7f1b 103e
00000060: 57d9 013e f0c0 55bd d058 cf3d a030 7b3c
00000070: 7c62 b43c 42c4 923d 61af e0bc f299 4cbc
00000080: 2487 f2bc d1a0 63bd d171 d03b ec0b cfbd
00000090: d25e ec3b 0e61 bfbc 40ae 773b 04c4 56bd
000000a0: c893 14bd b622 be3d 71d9 ddbd d33d 4fbd
000000b0: 3c29 02be fafd 42bd f542 7b3d b97d 6d3d
000000c0: b8b0 ecbc 4962 af3d 3f9c 953d b0d9 a33d
000000d0: 6e03 43bc 39ae ccbd 6bc2 c1bc afa5 ebbb
000000e0: 1f91 7dbb ccac 41bd 4a13 8c3d eaa7 cfbd
000000f0: d50d 0cbd 89eb e83d a9e9 843d c507 a93d
00000100: 08e5 b13c 9c4d 893c feae b13d 780b 9bbd
00000110: f63f 9a3d f622 653c e01d c6bd 06d0 ca3d
00000120: b081 ca3a 3908 37bd dc7c 17be 6e0d 0a3d
00000130: 97bd f83b 10c1 073d 4ec2 bb3b 5554 babd
00000140: 8cfe 973c 6bb9 49bd 2f50 4f3d 9316 9b3d
00000150: 6d31 b1bd 6db2 eabd 9373 e13c c037 913d
00000160: fe77 10bb c451 75bc 1a78 c53b ac07 99bd
00000170: ac12 023d 3629 533d c20b 9b3d d003 d73d
00000180: 2b0f f83c 89ed 123d 1330 9e3c 54e1 5fbd
00000190: 04b9 7f3d d55a 21bd 8cfe c63d 8130 c73d
000001a0: ef94 ebbd 34c3 1cba 17d6 22bc 84f1 7dbd
000001b0: 22f6 0fbe edb5 1e3d 3954 1abd 9218 ecbd
000001c0: 70b0 d73c a90d 333d ac6b e93c 24e7 603c
000001d0: 1f25 87bd d4d6 a1bd e1af 06bd ea94 143e
000001e0: 7bbf 0a3e 4288 353d 7b1e 1cbc 6cca ce3d
000001f0: 49ad 29bc bf51 ca3d 273d 2abd 253c e43c
00000200: 5585 e1bc ad5b 3abd bbb5 30bd 0303 7e3c
00000210: 9619 3abd da2c 69bd 2e79 8c3d d0ee 95ba
00000220: 0442 163d 31e0 773c 3e3a 14be f031 b0bc
00000230: 2256 93bb 2025 e0bb 09be aa3d 271f f2bd
00000240: 909c adbb 26ab d0bd 29e9 81ba 3436 f23d
00000250: 9603 2ebd fb26 963d 429a babc ca77 0f3e
00000260: 3788 8bbd 0945 6a3d 9f76 bc3d 60c3 de3c
00000270: 8fa3 b83d 2dd0 773c 42fc 6ebd 5c99 4a3d
00000280: b728 86bd c868 e23d 3fa1 843d 6fa4 86bd
00000290: 5324 803d c24e 143d 207d 923c 1c6a 1a3d
000002a0: c95b 54bd ceef da3c 6d43 103b fcc8 cbbc
000002b0: f9d9 b9bd 40af 283b 2c15 e33d e181 76bd
000002c0: 577b 4abd f6f0 9abd cb59 183c 6d36 a2bb
000002d0: 4360 e7bd 091c fcbc f08c d2bb e67e 5a3c
000002e0: 9225 1d3d 5e38 193d 03ab 303d 10ed e23c
000002f0: 154b df3d fd79 cc3d 5538 dd3d 94a5 1f3d
00000300: eb22 833b 637c 80bc e3cb 61bc 4b76 81bc
00000310: 7d85 28bd 0663 793d d294 88bd eab5 633d
00000320: 5e4d c6bd a523 a13c d49b 223c 2137 d63d
00000330: 002b d03b 2140 943d 2389 57bd 68ed 5a3d
00000340: e8f3 e93c e423 4fbd 75ce d23c 499d 5fbd
00000350: 1ec2 cc3d ec57 063b 37b6 d13c d38d 0b3e
00000360: fb87 27bb 578c f7bb cd42 a73d ff0f aabd
00000370: be4f 72bd eca5 47bd d351 b7bd 643f 9f3d
00000380: 06a6 9e3c d208 663d 500d d93d 177b 803d
00000390: ff17 853d 1171 3ebd dd6b afbd 3568 d33d
000003a0: d598 e2bd 7e94 7fbd 5c5a 793a ca75 883d
000003b0: 469f 4f3c aac9 8e3d fcc5 c13d d625 f9bc
000003c0: c4d4 b53d f7ff 63bd cb0a 54bd 1206 d53d
000003d0: 7870 a23c b93d cfbd 6c67 abbc 2656 72bd
000003e0: 912a b33d de32 bebd 11cc c7bc 264d 883d
000003f0: ccad 923c c689 1fbd 070b b7bd 47b1 1e3c
0.12814371 -0.031869367 0.08098874 0.06492524 0.052717254 0.08642128 0.018989883 -0.06378534
-0.037317332 0.11241403 0.034559928 -0.0074062557 -0.10757411 0.031736538 0.10331955 -0.055164266
0.051903516 0.040965207 0.0117367795 0.011667995 0.039751414 -0.1269103 0.03256081 0.14072989
0.12680565 -0.052185953 0.101243615 0.015331417 0.022019617 0.071663395 -0.027427377 -0.012487875
-0.029605456 -0.05557329 0.006361224 -0.10109696 0.007213452 -0.023361709 0.003779307 -0.05243303
-0.036273748 0.09283964 -0.10832489 -0.05059607 -0.12711042 -0.047605492 0.061343152 0.057981227
-0.02889286 0.08563668 0.07305192 0.08000505 -0.011902673 -0.09994168 -0.023652276 -0.007191382
-0.0038691235 -0.047283933 0.068396166 -0.10139449 -0.03419288 0.1137305 0.0648988 0.08253435
0.021715656 0.01676064 0.08675955 -0.07570547 0.07531731 0.013985386 -0.09673667 0.099029586
0.0015450027 -0.044685576 -0.14793724 0.033704214 0.0075909602 0.033143103 0.00572995 -0.09098116
0.018553995 -0.049249094 0.05061358 0.07572665 -0.08652005 -0.11459813 0.02752093 0.070907116
-0.0022044177 -0.014973108 0.00602628 -0.074721664 0.03175609 0.051552974 0.07570602 0.10498774
0.03028067 0.035871062 0.019310033 -0.05465825 0.062432304 -0.039393265 0.0971652 0.09726048
-0.11503016 -0.0005980015 -0.009938738 -0.061997905 -0.14058736 0.038747717 -0.037677977 -0.11528124
0.02632925 0.0437142 0.028493725 0.013726983 -0.06598877 -0.07902303 -0.032882575 0.14509931
0.13549607 0.0443194 -0.0095287515 0.10097203 -0.010356256 0.09878873 -0.041562226 0.02786071
-0.027529398 -0.045497585 -0.04314206 0.015503648 -0.045434557 -0.05692754 0.06859051 -0.001143897
0.03668405 0.015129135 -0.14475343 -0.021508187 -0.004496352 -0.006840363 0.083370276 -0.11822348
-0.0052982047 -0.10188894 -0.0009911406 0.11826745 -0.04248389 0.07331654 -0.022778634 0.1401054
-0.0681309 0.057194743 0.09202313 0.027192771 0.09015571 0.015125317 -0.05834604 0.04946266
-0.065507345 0.11055142 0.06476068 -0.06574332 0.06256928 0.03620792 0.01788193 0.03769885
-0.051845346 0.026725676 0.0022012845 -0.02487611 -0.09074778 0.0025739223 0.110880226 -0.060182456
-0.049434032 -0.07565491 0.009298752 -0.0049503357 -0.11297657 -0.030775087 -0.0064254925 0.013335919
0.038365908 0.03740727 0.04313184 0.02770093 0.10902993 0.09984205 0.1080176 0.038976267
0.0040019653 -0.015684312 -0.013781521 -0.015803477 -0.04114293 0.06088545 -0.0666901 0.05559341
-0.09682725 0.019670317 0.009924848 0.10459734 0.0063527822 0.07238794 -0.05262102 0.053449064
0.028558686 -0.050571337 0.025733212 -0.05459336 0.099979624 0.0020499183 0.025599582 0.1362832
-0.0025563228 -0.0075545716 0.08167038 -0.08303832 -0.05915808 -0.04874222 -0.089511536 0.07775763
0.019366276 0.056160755 0.10598242 0.062734775 0.064987175 -0.046494547 -0.08565495 0.1032261
-0.11064307 -0.062397473 0.0009512061 0.066630915 0.012672251 0.06972058 0.09461591 -0.03041355
0.088784724 -0.05566403 -0.051768105 0.104015484 0.01982902 -0.101191945 -0.020923339 -0.05916419
0.08748353 -0.09287046 -0.024389299 0.0665534 0.017905138 -0.03894975 -0.0893765 0.009685821

sequential/conv2d_2/Conv2D f4 [32, 3, 3, 32]
00000000: 58a0 12bc de68 febc 37ab 743d ceb8 abbd
00000010: 0c17 acbc 7d34 6fbd 1fa6 adbd 7638 8f3d
00000020: c44a 303d 9dad 643d de47 bfbd 593e 58bd
00000030: a576 19be 4975 6e3b a616 49bd a88f a7bd
00000040: a803 083d 26a6 923c c725 9ebc 6260 d738
00000050: d4a1 c73d 9532 e33c 065c abbd 985d babd
00000060: 2908 c13d f4c7 d8bc 6da3 a5bb 42b1 643b
00000070: 39e9 7cbd 8573 6abd e94d 993d 343f 873d
00000080: 021e 883d 067b 3cbb 5332 aebd a846 be3c
00000090: 2602 9a3d 3b3e 4dbd d502 b13c f6c7 c83c
000000a0: b425 553d 5fe3 77bc fd11 303d 861a 353d
000000b0: 5213 683b 77f7 6c3d 158d 32bd 14e9 0a3d
000000c0: 7962 8f3c 69ee 823d 3f1c 85bd c382 3dbd
000000d0: 2116 9bbb 89a5 73bd 9a3a 693d 969b b63d
000000e0: 9de3 9c3d a42b 953d a6c8 dfbd 7cbf 2bbb
000000f0: 20f0 2c3d c241 b0bd f844 45bd a5c1 16bd
00000100: 83c9 813b a8ca b63c 0b88 a0bd 38c2 4bbd
00000110: 88c1 703d f749 b73d dde7 8dbd 18c1 afbb
00000120: ac0c 813d f73f c8bc 29e0 93bd 6a18 eb3d
00000130: 03df 7ebd 1641 8fbd c956 94bd 9769 203d
00000140: 0419 82bd 648f 843d 95e4 c73d dc55 8fbc
00000150: 1a74 363c 600a 60bd 2906 f83c bfc8 a1bd
00000160: fb07 e53c d971 ffba a6b6 13be 2d02 4abc
00000170: 4318 53bd f0d6 183c 13ee d13d 1ebd df3d
00000180: 1836 e1bd a4d5 ae3d 45b6 6ebd 5085 783c
00000190: eb32 adbd c704 293c 7c87 4b3d dbca 77bd
000001a0: 1ad6 593d 732c c3bc c9e8 80bc de6c 943d
000001b0: bcc8 67bd 1c6a bb3c 0b69 df3c 0890 a1bd
000001c0: 68de 4dbd f63e c2bd 5368 00bd 9ad8 103d
000001d0: 334d b73c dd93 a9bd ed94 10bd 1729 d03c
000001e0: f1bb cf3d 7292 96bd 1041 2e3d 9737 5fbd
000001f0: e3a8 aebc 68fd 84bc ba06 e0bb e4df d43b
00000200: b9d2 bfbd fc07 c2bc 3690 823d 9410 a63d
00000210: 2016 8f3c 37ff e23d 621a a8bd 5bb3 88bd
00000220: 26f4 503c f6a7 b7bc 6fe4 cdb9 c3ee 9c3d
00000230: ab20 68bd 6d63 abbd be07 40bc c3cc 96bd
00000240: 9e42 a83d 3cdd 3fbd 694e a73d 7efe 58bd
00000250: 230b 623c 3cbd e4bc 4e6f 9a3d 3063 2fbd
00000260: bc35 2dbd 61b5 c03d f315 c1bd 4414 363b
00000270: 60ee 3cbd b379 babd 7bc3 b93d d2c4 c03d
00000280: 464c aebc b25b 35bd 3a17 9abd 245f c7bd
00000290: b736 93bd 4061 083c f4ea a73c b247 8c3d
000002a0: 378a cb3d 4179 573c 7685 9a3d af93 6a3d
000002b0: 4710 05bd 723b 833d 33ad 923c 97ea 06bc
000002c0: fd74 a9bc 2a06 6e3d bb0b 203d 133e 49bc
000002d0: 96fd 9bbd d9b1 2dbd 77e9 56bc d809 5abd
000002e0: 7ced 99bd a230 debc 7163 afbc 4986 b73d
000002f0: 0dd0 cebd 48f0 003d 254e 8e3d f82a cbbc
00000300: b71f 9c3d 04e2 b93d 8805 e23d a871 353d
00000310: 4ab8 b6bd 3d01 f33d 2929 d8bd a243 99bd
00000320: 4715 7f3a 4cf5 a9bd 686f c9bc db5b 313d
00000330: 53f2 08be 952d 23bc 0797 cebd f839 50bd
00000340: 65fa b33d c5cf 863d e4bb b33c e515 a13b
00000350: 1335 913d d036 a4bd 815c 203c 2972 413d
00000360: 0c82 c73d 8925 a1bd 3e99 c5bd 3a7a 0b3e
00000370: b8ee 2fbc 64bc fdbc 863f 953d 4473 163d
00000380: 22d0 67bd 5476 c0bd 0de0 abbc 80da c33c
00000390: 3c78 ac3d 5f03 cabc d13c e3bc e3b1 863d
000003a0: 9fef c03d ea92 713d 572e 47bd 56b3 913c
000003b0: ddc2 f1bd 0601 c1bd f414 7e3d ea2a 0b3c
000003c0: 7698 283d f810 97bd b348 d9bb facd da3d
000003d0: 6ae9 19bd 7ed1 dcbc 4c8c b23c ed15 ac3d
000003e0: def3 083d d253 b33d 1b29 753d 2805 a93d
000003f0: 3043 923d 00a0 5abc 65a3 f53d fce8 213d
-0.008949362 -0.031055864 0.059733596 -0.08384858 -0.021007083 -0.058399666 -0.08478951 0.06993191
0.043040052 0.055829633 -0.093398795 -0.052793834 -0.14986666 0.0036385825 -0.049093865 -0.08181697
0.033206612 0.017901491 -0.019305123 0.000102699516 0.09747663 0.02773408 -0.083671615 -0.09099883
0.094253846 -0.026462533 -0.0050548823 0.0034895693 -0.061745856 -0.057239074 0.07485563 0.06603852
0.066463485 -0.002875985 -0.08505692 0.02322705 0.07519941 -0.050108176 0.021607796 0.024509411
0.05203791 -0.015129893 0.042985905 0.044214748 0.0035411906 0.05785319 -0.043591578 0.033913687
0.01750301 0.063931294 -0.06499528 -0.046267282 -0.0047328626 -0.05948404 0.056940652 0.089163944
0.07660601 0.072837144 -0.109269425 -0.0026206663 0.04222119 -0.08606292 -0.048161477 -0.036805768
0.0039607896 0.02231343 -0.07838448 -0.04974577 0.058778316 0.089496545 -0.0692899 -0.0053635947
0.06301245 -0.024444563 -0.072204895 0.11479266 -0.0622244 -0.06994836 -0.072431155 0.0391632
-0.063524276 0.06472662 0.097603954 -0.017496996 0.011136079 -0.054697394 0.030276375 -0.078996174
0.027957907 -0.0019488885 -0.14425144 -0.01232962 -0.05153681 0.009328589 0.10250487 0.10924743
-0.10996646 0.085368425 -0.058279295 0.015168503 -0.084569775 0.01031608 0.049689755 -0.060496192
0.0531827 -0.023824906 -0.015736 0.07247327 -0.05658792 0.022877745 0.027271768 -0.078888
-0.05026093 -0.09484665 -0.03134949 0.035362817 0.022375679 -0.08280156 -0.035298277 0.025410218
0.10143269 -0.07352151 0.042542517 -0.054496374 -0.021320766 -0.016234115 -0.0068367394 0.0064964164
-0.09366364 -0.023685448 0.06375162 0.08108631 0.017466605 0.110838346 -0.08208157 -0.06674834
0.012753522 -0.022418957 -0.00039270843 0.07662728 -0.05667178 -0.08368573 -0.011720596 -0.07363274
0.08215831 -0.046841845 0.081692524 -0.052977078 0.0137966005 -0.027922265 0.07540761 -0.042819202
-0.042287573 0.09409595 -0.094280146 0.0027783075 -0.04612577 -0.091052435 0.09070488 0.094125405
-0.021276604 -0.0442769 -0.07523961 -0.097349435 -0.071881704 0.008323967 0.020497777 0.06849612
0.09938472 0.013151468 0.07544987 0.05726975 -0.032486226 0.06407823 0.017904853 -0.0082346415
-0.020685667 0.058111347 0.039073687 -0.012282866 -0.07616727 -0.042405937 -0.013117186 -0.053232044
-0.07516 -0.0271228 -0.021409722 0.0896116 -0.10098276 0.03147915 0.06948499 -0.024800763
0.076232366 0.09076312 0.11036211 0.044297844 -0.08921869 0.118654706 -0.10554726 -0.07483603
0.00097306486 -0.0829874 -0.024589255 0.04330049 -0.1337369 -0.009959598 -0.100874 -0.050836533
0.08787993 0.06582598 0.02194018 0.00491594 0.07090201 -0.08018267 0.00978768 0.047228012
0.09741601 -0.078684874 -0.09648369 0.13620844 -0.010738067 -0.03097362 0.07287507 0.03673102
-0.056594975 -0.09397569 -0.02098086 0.0239079 0.084213704 -0.02465981 -0.02773896 0.06576898
0.09420704 0.058978 -0.048628177 0.01778571 -0.11804745 -0.09424023 0.0620317 0.008494118
0.041161023 -0.073762834 -0.006630981 0.10683818 -0.037576117 -0.026955362 0.021795414 0.084026195
0.033435695 0.08756222 0.059853654 0.082529366 0.07141721 -0.013343811 0.11994056 0.03952883

sequential/dense/BiasAdd/ReadVariableOp f4 [128]
00000000: 5a23 223c 3e24 303c 6dde 003c dfd5 0ebc
00000010: 3f40 773c 2c74 c6bb 00bc 363c da43 713b
00000020: d9a3 2b3c a267 8c3a ba96 323b d0a2 43bc
00000030: 0000 0000 437e 813c 6789 6c3b db65 2cbc
00000040: 4678 4ebc 8f02 013c d7a7 09bc 0000 0000
00000050: bf23 3dbc d997 2dbb 6fa7 29bc 8a53 32bb
00000060: 7c8a ffbb 253e dd3c 7aa4 c23b b72c d8ba
00000070: 3061 cf3c 0000 0000 4aef 123c 53f7 d2ba
00000080: 43fb ecbb 871f 103c 3257 bf39 9bc1 c4bb
00000090: 2fec 31bc de09 8e3c fde6 d43b 4804 06bb
000000a0: 9a7d c7bb 9946 063c 17a8 163b 52f8 25bb
000000b0: 96bd 343b b7a1 b43a b4ab 893c 8e5c 11bb
000000c0: 0000 0000 703a e7bb 1bbf ac3a 76b4 53bc
000000d0: 4fec fc3b fe55 353b 0c3b 163b fa55 0d3b
000000e0: c6d7 413b 37ec 383c 43dc 41bc 5b71 f3bb
000000f0: 8729 cc3c a31d 813c 7ce0 fc3a cadb e03b
00000100: d0c8 3f3c 2f96 c9bb e7be ebbb 58b4 293c
00000110: 0b68 733c afbc 35bc 0000 0000 73a6 af3c
00000120: 0000 0000 63b8 08bc c34d 913c 3f5f b8bc
00000130: b3a0 35bc a51b 2abc 4558 c3bb 528c 873b
00000140: ab77 843c 6b9f c7b9 49d2 5b3c e24a 233c
00000150: e152 df3b deec 89bb 5953 353c 7918 a53c
00000160: ad51 313c e2fc babb d889 8b39 1220 29bb
00000170: 3d0b 7eb9 e64b 85bb f89e 3338 25af 1f3c
00000180: 599f 8e3c 9109 953c 0000 0000 0000 0000
00000190: 4f0c a23c 8632 6f3c 0000 0000 4cba 92bc
000001a0: 9ccb 1cba 9ebe b0bb 0508 7dbc 9b9a c6bb
000001b0: fadf 30bc 0000 0000 14d5 7bbb 0424 eabb
000001c0: a637 66b9 0000 0000 4ceb dabb 2905 fa3b
000001d0: 79a4 36bc 0f65 efbb e0a9 6d37 9533 4f3c
000001e0: a001 e839 5a78 1c3c cc93 18bc 2206 05bc
000001f0: 82d6 af3a 1b07 c23c 58c4 c4bb 1ea1 5ebb
0.009896124 0.010750828 0.00786553 -0.008717983 0.015091001 -0.0060563292 0.011153221 0.0036814124
0.010476076 0.0010712037 0.0027250485 -0.011940673 0.0 0.015807277 0.003609264 -0.010522331
-0.012601918 0.007874145 -0.008401833 0.0 -0.011544167 -0.0026488213 -0.010354861 -0.0027210438
-0.007798491 0.027007172 0.0059400173 -0.0016492818 0.025314897 0.0 0.008968184 -0.0016095437
-0.007232101 0.008796579 0.00036495324 -0.006004525 -0.010859533 0.01733869 0.0064972625 -0.002044933
-0.006087971 0.008195543 0.0022988373 -0.0025325012 0.0027578822 0.0013781105 0.016805507 -0.002218041
0.0 -0.007056527 0.0013179512 -0.012921443 0.0077186 0.0027669664 0.0022923378 0.0021566139
0.0029578074 0.011286787 -0.0118323 -0.0074292845 0.024922146 0.015761202 0.0019292976 0.0068621384
0.011705592 -0.0061519365 -0.007194388 0.010357939 0.014856349 -0.011092349 0.0 0.021441674
0.0 -0.0083447425 0.017737275 -0.022506354 -0.011085677 -0.0103825675 -0.0059614503 0.0041366005
0.016170343 -0.00038075013 0.013416835 0.009966584 0.0068153 -0.004209145 0.011067235 0.020153271
0.010822696 -0.0057064155 0.00026614848 -0.002580647 -0.00024227514 -0.0040678857 4.2824977e-05 0.009746348
0.017409967 0.018193038 0.0 0.0 0.01978126 0.014599448 0.0 -0.017911099
-0.0005981268 -0.005393817 -0.015443807 -0.006060911 -0.010795588 0.0 -0.0038426565 -0.0071454067
-0.0002195524 0.0 -0.0066808816 0.0076300097 -0.011147612 -0.0073057483 1.4165853e-05 0.012646575
0.000442517 0.009550178 -0.009312581 -0.008119138 0.0013415369 0.023685029 -0.0060048513 -0.0033970545

sequential/dense_1/BiasAdd/ReadVariableOp f4 [3]
00000000: 38d3 6d3b f249 52bc d406 c93b
0.0036289226 -0.012835013 0.006134847

sequential/dense/MatMul f4 [128, 128]
00000000: aa9f d2bd 878f 273e c0fe 553b 66f1 a23d
00000010: 0aeb 9ebd 984d f03d 9da6 db3d c53b b7bc
00000020: 68b2 96bd 454c d63d 6ff3 ed3a e50a 323c
00000030: 6154 3a3d aef5 243d a0ca 8d3b 733b 013e
00000040: 97c8 073e d7d2 203e 81f4 923d 1177 0a3d
00000050: 9c61 10be 27ec 91bc bb39 0c3e 1d71 003e
00000060: b9a2 b0bd 0f32 aebd 4664 983d c870 5ebc
00000070: d9a4 443e 1e2c 723d 33fd 9ebd e80b 8e3c
00000080: c91a be3d 9c06 a53d 0fc5 0c3e 283e f9bc
00000090: 27f4 0ebe 042b 9fbd 54a9 323e 751f c1bd
000000a0: 3e88 0ebd 03a5 d63d 6ec9 2cbd 15b7 273e
000000b0: ba4e d73d bbed 19bc 0ef4 b9bd 62b3 34bd
000000c0: 8d79 9ebd b43c d03d c86b ff3d 416c d83d
000000d0: d18b 3bbd e4eb 42bd e17f 993c 55e0 cdbd
000000e0: f0de 8abd b429 243e 6eb2 c63d 4428 fa3d
000000f0: 3d10 063e df75 173e 704a fb3d deba 843d
00000100: af9d 5bbd ba96 ccbd f57c 07be c690 643e
00000110: 44f7 713d 0a8c 0b3e 9b56 1c3e 5c53 0d3e
00000120: 06f5 b63c dc7a 953c e5ef ff3d 37e6 b539
00000130: cc65 80bd 8882 9f3d 0e4a bebd 79bd 94bd
00000140: bc58 733c 10a8 29bd f215 5cbc 8e72 513e
00000150: d4da 3cbd e3f7 d7bd b8a2 cfbd 2528 063d
00000160: c5f1 143e d954 ddbd 8e7c 1cbd 78c8 093e
00000170: 29cc c83d bd78 03be f991 f93d eca2 cdbd
00000180: 25fe 153d 4ae5 05bc 6b89 083e 3527 c73d
00000190: 9e55 6ebd 921b 0c3d 0c98 b83d 2162 b13d
000001a0: ddf7 f8bd e4d5 a4bd 7169 223e d6e7 553c
000001b0: 7c48 403d 9969 c83d 2563 363b 2643 a0bc
000001c0: 99ca 0bbe 0878 3a3d aed8 0f3d 8362 a9bd
000001d0: 7bfb eb3d 0004 84bd b485 d13d 0e70 18be
000001e0: f6b6 9cbd d6c3 4bbd efec 293c 70d4 1e3d
000001f0: 9804 f73c a89d 3abd 03bc de3c de73 f73d
00000200: ccb7 c9bd 8bba b0bc 0483 31bd e550 c4bc
00000210: 793d 023e e898 c2bd 3cc0 46bd d312 933d
00000220: eebf b5bd 389f a33d 2d54 fe3c 7f71 5d3d
00000230: 5d05 fb3d 4623 0b3c 98f4 cc3c 8ee8 d83d
00000240: b58d 043e 58ff 8bbd 1215 af3d 105a a4bd
00000250: e126 17bd afe0 dabd 7756 893d d8b6 0ebe
00000260: 8df6 2f3c 4928 14be a496 b0bd c579 d7bd
00000270: 3c32 bb3d 3053 c73d 4d5d e5bc bcd3 1a3d
00000280: f251 e13d a0ac c8bd bdbe 03be 2503 a0bd
00000290: 5413 90bd 6d11 c3bd 7793 da3c 1c72 09be
000002a0: 3efd 8e3d 8ee4 203e b8c7 f13d 0f19 1f3e
000002b0: 0a41 7fbd b8ae 063e 1eaf f93d 7900 083e
000002c0: e808 13be 5345 c8bd 4a7a e63d d9da 003e
000002d0: 4b45 1b3e 8459 d73b 3996 a53d 06fa 8a3c
000002e0: 250d 803d 7cec 413c ac1d e6bb 69b9 e83d
000002f0: ffb3 debd e395 e9bd 3bad ef3d 209b c53b
00000300: 1fa5 063c effd b13b 3016 bd3d f766 56bd
00000310: 56a0 df3d 5bd6 dd3d 8e0a 90bd cb62 30be
00000320: 4c34 283e 6c6e e43d f07a 4cbc f1d4 f83d
00000330: 3d63 dbbd 1a57 d93d 5a4c c73d 0eb7 ffbd
00000340: d146 0e3d 4300 80bc d915 ab3d 0e2c 16be
00000350: a9b0 973d 06ce 8d3d fdd7 b4bc 4889 aa3d
00000360: 264e ab3c da46 30bd 9c19 8abc b60f 19be
00000370: e29a f2bc 4860 943d f99a 803c 935d a1bd
00000380: 35f6 303e c5b5 073d 40ef 0bbd 80d4 7abd
00000390: 0f47 a2bd 0a1b 323d 3ba0 d43d d6e5 013d
000003a0: c1d2 933d 206c 1e3e b642 07bd 1ccb 703d
000003b0: f895 3abd 5866 903d b09b bebd 8cf8 c6bd
000003c0: 138e dcbc 5d6a 10be 9305 a5bd 19d9 7e3c
000003d0: e69c 93bd 38f1 d53c 892e 003e a2f5 013e
000003e0: 7f82 cdbd 5232 96bd fd0c 2a3e 9100 bd3d
000003f0: 105c e7bc d628 80bc 594f 53bb fa07 10bd
-0.1028436 0.16363345 0.0032653064 0.07956199 -0.07759674 0.1173355 0.10725138 -0.022367368
-0.07358247 0.10463766 0.0018154214 0.010866855 0.045490626 0.04027336 0.0043271333 0.12620334
0.13260113 0.15705429 0.07175542 0.033804957 -0.14099735 -0.017812802 0.13693897 0.1254315
-0.08624787 -0.08505642 0.07441001 -0.013576694 0.1920351 0.059124105 -0.07763138 0.017339662
0.092824526 0.08057901 0.13747047 -0.030425146 -0.13960324 -0.077718765 0.17447406 -0.09429828
-0.0347979 0.10480692 -0.042184286 0.16378434 0.10513063 -0.009395058 -0.09079753 -0.044116385
-0.07738028 0.10167828 0.124717295 0.10567523 -0.045787636 -0.047588244 0.018737735 -0.100525536
-0.06780803 0.16031533 0.097020015 0.12214711 0.13092132 0.14791058 0.12270057 0.064809546
-0.053617176 -0.09989686 -0.13231261 0.22320852 0.0590737 0.1362764 0.15267412 0.1380133
0.022333633 0.01824706 0.12496928 0.00034694534 -0.06269416 0.07788569 -0.092914686 -0.072627015
0.014852699 -0.041420043 -0.013432967 0.20453855 -0.04610713 -0.105453275 -0.10138458 0.03275313
0.14545353 -0.10807199 -0.038204722 0.13455379 0.098045655 -0.12839027 0.12186045 -0.100408405
0.036619324 -0.008172343 0.13333671 0.09724275 -0.05818712 0.03420598 0.09013376 0.08661295
-0.12156651 -0.08048609 0.15860535 0.013055762 0.046944126 0.09785766 0.002783009 -0.019563269
-0.13651504 0.045524627 0.03511875 -0.08270743 0.115225755 -0.064460754 0.1023058 -0.14886495
-0.076520845 -0.04974731 0.010371431 0.038776815 0.030153558 -0.04556051 0.02718926 0.12082647
-0.098495096 -0.021573326 -0.043337837 -0.023964355 0.12718762 -0.09501821 -0.048523173 0.07181325
-0.08874498 0.07989353 0.031045998 0.054063316 0.12256882 0.008492297 0.025018975 0.10591231
0.12944682 -0.06835812 0.08548941 -0.080249906 -0.036902312 -0.10687386 0.06705945 -0.13936937
0.010739935 -0.14468493 -0.086224824 -0.105212726 0.09140441 0.09732664 -0.02799859 0.037799582
0.11001958 -0.097985506 -0.1286573 -0.078131 -0.070349365 -0.09524808 0.026681645 -0.13422436
0.06981896 0.15712187 0.118056715 0.15536903 -0.062317885 0.13152587 0.12191604 0.1328143
-0.14358866 -0.097788475 0.112537935 0.12583484 0.15163152 0.0065719504 0.08085293 0.016964924
0.06252507 0.011836167 -0.00702258 0.11363489 -0.10874175 -0.11405542 0.11702963 0.006030455
0.008218079 0.0054318826 0.092327476 -0.05234429 0.109192535 0.10831901 -0.07033263 -0.17225187
0.164262 0.11153874 -0.012480482 0.1214999 -0.107122876 0.106123164 0.0973136 -0.12486087
0.034735505 -0.015625125 0.083537765 -0.14665243 0.07406742 0.069240615 -0.022075647 0.083269656
0.020911288 -0.04303632 -0.016857915 -0.149474 -0.02961487 0.07244927 0.015698897 -0.07879176
0.1728142 0.033132333 -0.034163713 -0.061237812 -0.079237096 0.043482818 0.10382124 0.03171333
0.072179325 0.15470934 -0.033022605 0.05878745 -0.045553178 0.070507705 -0.09307039 -0.09715375
-0.026923215 -0.14103074 -0.08057704 0.01555469 -0.072076604 0.026115999 0.12517752 0.12691358
-0.10034656 -0.073338166 0.16606517 0.09228624 -0.028242141 -0.015644472 -0.003224334 -0.035163857

sequential/dense_1/MatMul f4 [3, 128]
00000000: a27c 3d3e 2e84 94bd cdbc 583e b847 6fbd
00000010: 1e75 853e 4a2a debd 443b 503e 2f96 343d
00000020: b266 723d f05f 8e3d 5364 6d3e 4320 103d
00000030: e001 bf3c a96e ae3d 2a26 433e 00fb eebd
00000040: 15f4 d03d 98d3 e73d 8ee8 393e 0441 43bd
00000050: 8796 4bbe e4d2 70bd dd7b acbd 9b7c c6bd
00000060: c735 453e b332 113e c58d 29be 0528 593e
00000070: 7621 be3d 458b 553e b3b0 473d a226 6abe
00000080: 2619 4b3d 8015 39be 951a 483d 8991 3dbb
00000090: 0743 243e 8900 963d 9a8c 75bd c6c3 2a3d
000000a0: 317b 093e bd83 f3bd 2f81 b43d b146 50be
000000b0: c93e 553e 2cb5 cebd 7f94 a6bd e0dd 7c3e
000000c0: eded 21be 22dd 063e 72df 4fbe be5c 62bd
000000d0: 52ea 3dbe 7685 753e 5523 85be 55bb c0bc
000000e0: 8e29 6d3b b947 393e 9563 5c3d 8632 0cbe
000000f0: c03a 513e 5b46 a43d f737 a3bd e430 82bd
00000100: b1ec 463e 5a1c 763d 3e42 4bbc 87d6 513e
00000110: 576b ed3d f668 00be c41c 03bd 3946 753d
00000120: 5a7f 8a3d d4ec 823c 4963 553e 2380 ddbb
00000130: fd65 2dbe 2bed 2fbe 698f 433e da62 93bd
00000140: 3703 403e 03a9 5d3d 219a 48bd d55d 023e
00000150: 99e9 e53d bd63 dfbd 9b33 46be 763b 89bd
00000160: fb36 cfbd 64ae c0bc 145e 253e bd67 60be
00000170: 8671 153d ff03 fabd 6d26 4abe 005c 643e
00000180: 259a 063c 617d f5bd 6b36 253e 577f 1a3e
00000190: 1da9 5b3d 7e2f 893c e4d5 493d d5ea 4fbe
000001a0: 5a5c bebd 7492 eb3d 8c00 3cbe 43a6 1d3e
000001b0: 83ff b93c 9c36 453d 7875 23be cead 55be
000001c0: f370 c13d 7410 0a3d b441 0bbe 89bf d1bd
000001d0: 269e 233e 9268 e43d 9fb3 4abe a24c 1f3d
000001e0: b126 1abd 7f52 0cbe fd30 84bb b77f a7bc
000001f0: 16d6 953d 1076 5cbc 5a59 583d 51ba 2abd
00000200: 43e2 f6bd fc54 bf3b 3d49 5abe 1e52 e93c
00000210: 9e47 8c39 4310 2c3d 3f20 883d 3019 81be
00000220: eba4 fdbd a556 833e 4c00 7b3d 8529 a23d
00000230: 8064 a5ba 403e 8cbd 27b0 dc3c 93a8 523e
00000240: 3bec 2b3e 80a7 f5bd 932d 473e 9463 60bd
00000250: 66e5 033e 53d9 923d d348 283e c2bc 1a3e
00000260: bcfa 573e 976b e5bd 67ca 643e e1f8 963d
00000270: a34c 89be 4b10 133e ace9 343c 202c b6bd
00000280: 5f20 2e3e 5d13 483d 29bd aa3d 121f 07be
00000290: 8332 2f3e 0cab 2fbe 7fdc ed3d aac8 f5bc
000002a0: 61f7 3abe c65f cd3d 2397 19be 4194 dd3d
000002b0: 608d 923d 5832 963d 60fb 61be b041 713d
000002c0: fa58 843d fd0b 8b3d 0706 2b3b 4881 fc3d
000002d0: fc12 6d3c c07d 86bd a7d1 a33d 3609 6e3d
000002e0: bf00 0bbe d478 b23d 4572 3dbe 1ac2 9b3d
000002f0: 1242 29bb 1f3d 6dbe f462 0cbe ac96 53be
00000300: d0df 31be ef8e 483d 5645 893c a516 91bd
00000310: f230 2abe ec93 403e 037a f6bd eaf6 bdbd
00000320: a2fb 06be 28d3 443c db5a bcbd 8f4e 26bd
00000330: 0e16 abbd ae53 01be 33ec 033e aad3 ed3c
00000340: 0812 dbbd 0bdd 4bbd 59be 203e a2a2 0bbe
00000350: 188e 6dbe 8b73 f73d aed4 833d 54b6 06be
00000360: 9018 023e 6b96 ea3d f66a a93d 75d0 2b3e
00000370: 92c8 36bd a852 7b3e ef35 643e 1a6d fc3c
00000380: 63dc 62be a158 4cbe 6ec3 f73d b3eb 343e
00000390: d413 b5bd 987d 58be e691 44be f317 043e
000003a0: 056b c43d f153 53be d5ed f4bd 7e0b 603d
000003b0: 33b8 413e ffc8 233e 12e9 67be 652b b03d
000003c0: 0451 293e 546b 3e3d ee8e 033e 626a 25be
000003d0: 8fb3 4b3e 658a 62bd 7c04 df3b 8acb 44be
000003e0: 2883 d23d 17b7 fdbd fa49 0bbe 2b71 db3c
000003f0: 337f 0c3e a2f4 53be cc2b 44be 497f b53d
0.18504575 -0.07251774 0.21165772 -0.058418006 0.26065916 -0.1084791 0.20335108 0.04408854
0.05917997 0.069518924 0.23182802 0.035187017 0.023316324 0.085172005 0.19057527 -0.11668968
0.10202805 0.11319655 0.18155119 -0.047669426 -0.1988164 -0.05879487 -0.084220625 -0.09691735
0.19258796 0.14179496 -0.16557987 0.21206672 0.09283726 0.20853908 0.048752498 -0.228663
0.04958453 -0.18074608 0.048853476 -0.0028925857 0.16041194 0.07324321 -0.05994854 0.04169061
0.134259 -0.118903615 0.08813702 -0.20339467 0.20824732 -0.100931495 -0.08133792 0.24694014
-0.15813418 0.13170293 -0.20300081 -0.055264227 -0.18546417 0.23976693 -0.2600352 -0.023526827
0.0036188099 0.18093766 0.053805906 -0.13691148 0.20432568 0.08021232 -0.07969659 -0.063569814
0.19426228 0.060085632 -0.01240593 0.20491992 0.11592739 -0.1254004 -0.032009855 0.059881423
0.06762572 0.01598207 0.20838656 -0.00675966 -0.16933437 -0.17180316 0.19097675 -0.07196589
0.18751226 0.05411626 -0.048975114 0.12731107 0.11226196 -0.109076954 -0.19355623 -0.067007944
-0.101179086 -0.023520656 0.16149169 -0.21914573 0.036485218 -0.122077934 -0.19741221 0.2230072
0.008215462 -0.11986805 0.1613404 0.15087639 0.053628076 0.016746279 0.049276248 -0.20304425
-0.092949584 0.11502543 -0.18359584 0.15395455 0.022704845 0.048147783 -0.1596278 -0.20867082
0.094453715 0.033707097 -0.13599283 -0.102416106 0.15978298 0.11152758 -0.19795083 0.038891442
-0.037634555 -0.13703345 -0.00403416 -0.020446641 0.07316224 -0.013455883 0.052819587 -0.04168159
-0.12054875 0.0058389883 -0.21317 0.02848154 0.0002675624 0.042007696 0.066467755 -0.2521453
-0.12384971 0.25652042 0.06127958 0.079180755 -0.0012618452 -0.06847811 0.026939465 0.20572118
0.16789334 -0.11994839 0.19450979 -0.054782465 0.12880477 0.071703576 0.1643403 0.15111068
0.21091741 -0.11202162 0.22342835 0.07371689 -0.26816282 0.14361684 0.01104204 -0.08895135
0.17004536 0.04884659 0.08336861 -0.13195446 0.17109112 -0.17155093 0.11614322 -0.03000291
-0.1825843 0.10028033 -0.1499906 0.10819293 0.071558714 0.07333821 -0.22068548 0.058900535
0.064622834 0.06789396 0.0026096122 0.12329346 0.014469858 -0.06566954 0.079989724 0.058114253
-0.13574503 0.087144524 -0.18500622 0.07605381 -0.0025826734 -0.23167847 -0.13709623 -0.20662946
-0.17370534 0.048964437 0.016756695 -0.07084397 -0.16620234 0.18806428 -0.12034991 -0.09275611
-0.13181928 0.012013234 -0.09197017 -0.040602263 -0.08353816 -0.12629578 0.12883072 0.029031593
-0.106967986 -0.04977135 0.15697612 -0.13636258 -0.23198736 0.12082585 0.0643705 -0.1315549
0.12704682 0.11454471 0.08272354 0.16778739 -0.044624873 0.2454325 0.22286199 0.030813742
-0.22154383 -0.19955684 0.12097822 0.17668037 -0.088416725 -0.2114166 -0.19196281 0.12899761
0.09590725 -0.2063749 -0.11959425 0.05469846 0.18917923 0.15994643 -0.22647503 0.08602027
0.16534811 0.046489075 0.12847492 -0.16153863 0.19892715 -0.055307765 0.0068059545 -0.19218269
0.10278922 -0.12388437 -0.13602439 0.026787361 0.13720398 -0.20698789 -0.19157332 0.08862168
